checkpoint.pth (torch, 46935 bytes, 6 tensors)

input_layer.weight f4 [64, 37]
0.048665166 -0.04504848 -0.033321835 -0.14368588 -0.4976023 0.016092623 0.03780955 0.03641518
0.15754516 0.022171976 -0.16419919 -0.040864553 -0.035975408 -0.16222438 -0.20015636 -0.12953079
0.10916098 0.11423945 -0.17074549 -0.21483202 -0.10022403 -0.12380437 0.22040819 -0.03716097
-0.11598783 -0.045201235 0.22681879 -0.3314408 -0.10606775 0.05737461 -0.36849353 0.027640067
0.11826151 0.11227275 -0.3354913 -0.050569374 -0.020073745 0.42544058 -0.15651536 -0.049528874
-0.21867128 -0.90927845 0.0783478 -0.07484574 -0.12124996 -0.22878139 -0.32676703 0.18955359
-0.017938863 0.0032741781 0.009946352 0.18644482 0.15293647 -0.018528732 -0.03406133 0.051670466
-0.10294765 -0.12771665 -0.03609717 -0.12656869 0.15781818 0.102318026 -0.02701502 0.014910237
0.08932134 0.05951803 0.029106831 -0.025307277 0.09538471 0.19851524 0.08950043 0.059811994
0.008383859 0.0054252297 0.02571335 0.233215 -0.043734007 0.11637778 -0.021264523 -0.33236504
0.038308565 0.23454559 0.1550337 -0.15421572 0.05789407 0.12666298 -0.04935524 -0.0018402927
-0.11091697 -0.28142387 -0.026408792 0.31487936 0.19710042 0.014028809 0.14662747 -0.19056322
0.09423993 -0.2123307 -0.52619636 -0.12549077 0.22736394 0.093391545 -0.023062155 -0.15075395
-0.112344116 -0.074749954 0.000763187 -0.17674331 0.014536504 0.028931815 -0.012416087 0.3609981
-0.32986766 0.028053971 -0.28495318 -1.5523812 -0.12196393 0.07836954 0.059454884 0.18487334
0.117729135 -0.09282124 0.05156538 0.076474 -0.16152978 -0.052569628 -0.05769605 -0.020438947
-0.072989866 -0.021882236 0.17604914 0.017748512 -0.04921932 0.065619774 0.04551381 -0.012535261
-0.01598622 0.03118617 0.099963315 0.21026617 0.20612738 0.049859926 0.04944584 0.117784135
0.0077844514 -0.23269114 -0.01548036 0.002476494 -0.026762135 -0.19833812 -0.08734562 -0.19920431
-0.102732144 0.007825518 0.18682869 0.039939724 -0.063682795 -0.2513329 -0.03107098 0.062032856
-0.08270508 0.010300978 -0.10590662 -0.12652728 0.058258872 -0.0650019 -0.01257793 0.14500771
-0.061331224 -0.051208794 0.032659978 0.13867396 0.27560836 -0.034945387 0.0037746495 0.06246374
0.1411151 0.0066583413 0.30093065 -0.5874106 0.02110304 -0.41663647 -1.1254425 0.024510695
0.010513303 0.028691862 0.045074396 -0.123843856 -0.15498166 -0.023446675 0.0068290946 0.21773872
0.025090689 -0.0950254 -0.81264204 -0.009875955 -0.1678476 -0.091985516 -0.032550033 0.21041596
-0.06122483 -0.035798218 0.022681674 -0.09438278 -0.25243223 0.008287248 0.03683491 0.15585414
0.04753952 0.007249516 -0.0024257551 -0.10414718 0.03131408 -0.12030275 -0.6965217 0.18006466
-0.4196009 -0.020811247 -0.29068926 -0.70029265 0.016224582 0.060540468 0.022112446 0.042345483
-0.036433466 -0.06083299 0.021740517 0.029752035 0.022068737 -0.054862503 -0.062087964 0.10625402
0.1602145 0.06812595 -0.048769396 0.15892854 0.08865684 0.004646031 -0.09172772 0.033037823
-0.030006278 0.09928726 -0.33743545 0.22642013 0.07012939 0.063225426 0.13476095 0.015384777
-0.09999994 -0.040313672 -0.14181013 -0.30111566 0.14479882 0.009134435 -0.0971538 -0.049029157
00000000: 2055 473d c184 38bd 7a7c 08bd 6422 13be
00000010: bbc5 febe add4 833c 30de 1a3d 1528 153d
00000020: 8553 213e 01a2 b53c d523 28be 9761 27bd
00000030: f35a 13bd 261e 26be caf5 4cbe b8a3 04be
00000040: cb8f df3d 5ff6 e93d e8d7 2ebe edfc 5bbe
00000050: 4242 cdbd 258d fdbd afb2 613e 1a36 18bd
00000060: 078b edbd ee24 39bd 2f43 683e 9cb2 a9be
00000070: 0c3a d9bd a401 6b3d 2fab bcbe 6c6d e23c
00000080: 1733 f23d 41ef e53d 84c5 abbe d521 4fbd
00000090: b271 a4bc 59d3 d93e 9045 20be cade 4abd
000000a0: 5deb 5fbe 79c6 68bf d074 a03d b948 99bd
000000b0: e651 f8bd ab45 6abe 024e a7be 561a 423e
000000c0: 86f4 92bc 9893 563b 06f6 223c 64eb 3e3e
000000d0: 619b 1c3e 91c9 97bc e583 0bbd 69a4 533d
000000e0: 38d6 d2bd 27c8 02be a0da 13bd 399b 01be
000000f0: 179b 213e 1d8c d13d 9a4e ddbc 114a 743c
00000100: 1bee b63d 2ec9 733d 7371 ee3c 3551 cfbc
00000110: 0f59 c33d 9447 4b3e 004c b73d 6cfd 743d
00000120: 745c 093c 20c6 b13b cea4 d23c eacf 6e3e
00000130: 6e22 33bd 7957 ee3d f032 aebc c02b aabe
00000140: 71e9 1c3d b82c 703e 27c1 1e3e baea 1dbe
00000150: 5522 6d3d f1b3 013e b828 4abd fa35 f1ba
00000160: 7028 e3bd ca16 90be 4057 d8bc de37 a13e
00000170: b1d4 493e 17d9 653c 8325 163e 0123 43be
00000180: dd00 c13d 386d 59be ceb4 06bf a780 00be
00000190: 18d2 683e 1144 bf3d d8ec bcbc 3e5f 1abe
000001a0: ac14 e6bd 8116 99bd 9d10 483a 33fc 34be
000001b0: 842a 6e3c 6a02 ed3c d86c 4bbc bed4 b83e
000001c0: 6ae4 a8be 71d1 e53c 62e5 91be 6db4 c6bf
000001d0: 3ac8 f9bd 3680 a03d f786 733d 704f 3d3e
000001e0: f91b f13d 1019 bebd 3836 533d 679e 9c3d
000001f0: 1068 25be 4053 57bd b152 6cbd 946f a7bc
00000200: b67b 95bd 6042 b3bc 3a46 343e 5465 913c
00000210: 339a 49bd a963 863d b06c 3a3d b260 4dbc
00000220: 89f5 82bc 247a ff3c 91b9 cc3d 0450 573e
00000230: 0e13 533e ec39 4c3d b987 4a3d cf38 f13d
00000240: b614 ff3b 9646 6ebe 56a1 7dbc ad4c 223b
00000250: 443c dbbc 2619 4bbe 43e2 b2bd 37fc 4bbe
00000260: 3b65 d2bd 9a36 003c 0550 3f3e d697 233d
00000270: 206c 82bd b5ae 80be 9188 febc 2a16 7e3d
00000280: 4861 a9bd 6fc5 283c 92e5 d8bd 5e90 01be
00000290: dba0 6e3d b71f 85bd aa13 4ebc e77c 143e
000002a0: 7336 7bbd 50c0 51bd 78c6 053d 8c00 0e3e
000002b0: 8a1c 8d3e e522 0fbd 1c60 773b fbd9 7f3d
000002c0: 7a80 103e 372e da3b 9513 9a3e 8b60 16bf
000002d0: 48e0 ac3c 6051 d5be 800e 90bf a7ca c83c
000002e0: fd3f 2c3c 320b eb3c ee9f 383d d9a1 fdbd
000002f0: 83b3 1ebe 3e13 c0bc 99c6 df3b e6f6 5e3e
00000300: fd8a cd3c ad9c c2bd 4f09 50bf c2ce 21bc
00000310: 3ee0 2bbe e762 bcbd 2f53 05bd 4877 573e
00000320: e3c6 7abd 27a1 12bd ebce b93c c24b c1bd
00000330: cc3e 81be 3dc7 073c 34e0 163d 3a98 1f3e
00000340: cdb8 423d 598d ed3b 6bf9 1ebb 1e4b d5bd
00000350: 3143 003d 4a61 f6bd 3f4f 32bf df62 383e
00000360: eed5 d6be 597c aabc 39d5 94be 6146 33bf
00000370: 6ae9 843c 48f9 773d 2925 b53c 7572 2d3d
00000380: 423b 15bd 032c 79bd 2b19 b23c 8aba f33c
00000390: 7fc9 b43c 81b7 60bd f34f 7ebd b59b d93d
000003a0: 450f 243e 9e85 8b3d 6bc2 47bd 2abe 223e
000003b0: b891 b53d bc3d 983b bedb bbbd ab52 073d
000003c0: bacf f5bc 1e57 cb3d 57c4 acbe aeda 673e
000003d0: ff9f 8f3d 557c 813d c6fe 093e 6f10 7c3c
000003e0: c5cc ccbd f31f 25bd ad36 11be d52b 9abe
000003f0: 2446 143e 99a8 153c 92f8 c6bd ccd2 48bd

input_layer.bias f4 [64]
0.10398386 0.013759509 -0.09879186 -0.025340756 0.19063634 -0.059363168 -0.07910074 0.088543326
-0.058707245 -0.11876588 0.08416837 0.07369104 0.1445289 0.04043507 -0.04034943 -0.090708315
0.0213785 -0.1072363 -0.016866134 -0.17734618 -0.08342603 0.0460163 -0.038653325 -0.030910114
-0.08758877 0.21323587 0.013677192 -0.13813949 0.16944616 0.08274513 -0.14382629 -0.098099895
0.10136817 -0.036002573 -0.12394676 0.09083098 -0.099517874 0.052553073 -0.115749665 -0.17265902
-0.06591847 -0.03226411 -0.13949521 0.1782651 -0.008604587 -0.0804661 0.0071671307 -0.0735536
-0.12370974 0.024116745 -0.20902972 0.054104798 -0.026710091 -0.10126764 -0.15554556 0.011239017
0.04706315 -0.06165294 -0.039693873 -0.15525325 0.032576896 0.07677374 -0.025725428 0.039987404
00000000: 7df5 d43d 906f 613c 6353 cabd 6b97 cfbc
00000010: 2c36 433e cb26 73bd 92ff a1bd 3456 b53d
00000020: 0277 70bd 873b f3bd 7760 ac3d 54eb 963d
00000030: 62ff 133e 3e9f 253d 7245 25bd 48c5 b9bd
00000040: f721 af3c b59e dbbd d92a 8abc 3d9a 35be
00000050: 44db aabd 967b 3c3d f352 1ebd 3537 fdbc
00000060: be61 b3bd 815a 5a3e 4d16 603c 7074 0dbe
00000070: 4b83 2d3e 4776 a93d 3347 13be 99e8 c8bd
00000080: 1d9a cf3d 6f77 13bd cdd7 fdbd 9805 ba3d
00000090: 07d0 cbbd e441 573d 290e edbd 87cd 30be
000000a0: 4300 87bd 5f27 04bd d5d7 0ebe 208b 363e
000000b0: 41fa 0cbc 69cb a4bd 40da ea3b 45a3 96bd
000000c0: 885b fdbd 7b90 c53c e30b 56be fe9c 5d3d
000000d0: 1fcf dabc 6965 cfbd 5647 1fbe db23 383c
000000e0: 4ac5 403d cb87 7cbd 0b96 22bd b5fa 1ebe
000000f0: 5a6f 053d 8d3b 9d3d 22be d2bc d5c9 233d

hidden_1.weight f4 [128, 64]
-0.2012933 0.0052367505 0.16858278 0.44469398 -0.0034521483 -0.10054063 -0.05559727 -0.43538097
0.14001593 0.04262604 0.051721543 0.22001939 -0.502677 0.14135727 -0.39458746 -0.35341984
-0.01633351 -0.16546577 -0.069484964 -0.18195452 -0.1369906 -0.45257652 -0.08600026 -0.08830724
0.018828832 -0.13291644 0.0856996 -0.30270565 -0.019061556 0.16370437 -0.022036482 -0.4073164
0.12392234 0.041586768 0.036570854 0.1292886 -0.1588319 0.26912758 0.060684126 -0.013843979
-0.32711977 -0.36401233 -0.32024077 -0.15765151 -0.34117845 -0.2613121 -0.38968393 0.10355003
-0.59350115 -0.37617406 -0.3097456 -0.060837924 -0.71151626 -0.26879394 -0.09647372 -0.18855895
-0.0067998846 0.109997086 -0.11703983 0.050171025 -0.09926258 0.121424496 -0.11634646 -0.16712037
0.19277175 0.14762335 0.14111361 0.27563262 -0.02889257 0.2125681 -0.5636741 0.085584566
0.06732752 -0.13175917 0.11350938 0.06084032 -0.19086288 0.14038673 -0.24316573 -0.059343774
-0.25383687 0.17864567 -0.7479871 -0.20075299 0.075454816 -0.2593392 -0.25241235 -0.09943579
0.20662065 -0.026648954 -0.11414575 0.11042626 0.16900577 0.0045618564 -0.07719994 -0.0014441224
-0.16929914 0.28757042 0.08501965 -0.06458268 -0.15426052 0.25596973 0.19794634 -0.4185982
-0.01886803 -0.00159216 0.19992684 -0.20108195 -0.05387045 -0.18384792 -0.20472144 0.20434977
-0.04242562 -0.51385117 -0.6254115 0.2261451 -0.072339214 -0.01629891 -0.32470226 -0.052349247
0.065701574 -0.28832966 0.152092 0.27740094 0.028714495 0.08267576 -0.079105295 -0.17079136
-0.04046079 -0.035105143 -0.08413876 0.07662724 0.14565122 0.07050233 -0.0813708 -0.027125632
0.08685047 -0.00964609 -0.032598734 0.02940726 -0.019788738 0.06667642 -0.15503196 0.04210559
-0.015767004 -0.008940696 -0.037306584 -0.088321686 -0.15972249 0.11742816 -0.06670513 -0.046535987
-0.15394588 0.24333887 0.14711678 -0.08927036 -0.061226275 0.12653857 -0.24481088 -0.0028755395
-0.13296296 -0.017906932 -0.035443146 0.14619415 0.06642357 0.015830265 0.054788977 -0.024940316
0.351906 -0.080616295 -0.009527927 -0.1010741 -0.03743405 0.12862615 -0.040863708 -0.38285425
-0.13995312 0.070426054 0.012659979 0.047941167 -0.20344493 0.015139908 -0.117863774 -0.121438
-0.00042348896 -0.07550679 0.39820254 -0.073864385 -0.07638184 -0.0019873013 0.11062149 -0.14847435
0.069159865 -0.13720497 -0.10712595 -0.2652752 -0.07521163 -0.02258478 -0.1919205 -0.014517639
-0.04809864 -0.05115822 -0.07342451 0.1432705 -0.048227616 0.11252952 -0.08612553 -0.10023825
-0.16331741 -0.046008002 -0.23624709 -0.13651504 0.08556575 0.11931814 -0.09759142 0.05261
0.27053323 0.054659784 0.34275508 0.038687386 0.071234345 -0.059015527 0.047335148 -0.11992983
-0.093613274 -0.08320795 0.0072962856 0.13582379 -0.20545046 0.121961035 0.21139656 -0.06387756
-0.022762695 0.22913055 0.117873974 0.026890581 -0.23508486 0.11110954 0.06416066 -0.04456697
0.04341296 0.0028888707 -0.000436763 -0.0460972 0.09028748 0.008107591 -0.07943813 -0.019715393
-0.25136554 -0.1272515 -0.12766628 -0.015973335 -0.026930507 0.11529279 -0.26276523 0.07385841
00000000: d51f 4ebe 0c99 ab3b f7a0 2c3e eeae e33e
00000010: 703d 62bb 3fe8 cdbd f7b9 63bd 41ea debe
00000020: 5660 0f3e a498 2e3d f8d9 533d c34c 613e
00000030: 71af 00bf f6bf 103e 5e07 cabe 72f3 b4be
00000040: dacd 85bc dc6f 29be 224e 8ebd 4952 3abe
00000050: 4447 0cbe 1cb8 e7be e820 b0bd 6dda b4bd
00000060: ec3e 9a3c 3f1b 08be 4683 af3d 3cfc 9abe
00000070: fb26 9cbc 1ea2 273e da85 b4bc c68b d0be
00000080: ffca fd3d e356 2a3d 52cb 153d 3b64 043e
00000090: d4a4 22be 17cb 893e eb8f 783d dbd1 62bc
000000a0: 3e7c a7be d35f babe 99f6 a3be 666f 21be
000000b0: f1ae aebe b3ca 85be a784 c7be 0a12 d43d
000000c0: b1ef 17bf e399 c0be fa96 9ebe 3031 79bd
000000d0: ee25 36bf 5c9f 89be 0494 c5bd 9915 41be
000000e0: 91d1 debb 2746 e13d 94b2 efbd 2280 4d3d
000000f0: 2e4a cbbd 68ad f83d 0e47 eebd 9a21 2bbe
00000100: f565 453e 932a 173e 1680 103e b81f 8d3e
00000110: 1cb0 ecbc 74ab 593e f24c 10bf f646 af3d
00000120: 03e3 893d e0eb 06be 9b77 e83d b333 793d
00000130: 8f71 43be 8ac1 0f3e 7000 79be 7512 73bd
00000140: e8f6 81be e4ee 363e 157c 3fbf 3192 4dbe
00000150: 0e88 9a3d 1cc8 84be 313c 81be fea4 cbbd
00000160: 5d94 533e e84e dabc 3fc5 e9bd 2a27 e23d
00000170: d90f 2d3e a07b 953b 011b 9ebd b548 bdba
00000180: c15c 2dbe 6e3c 933e c81e ae3d ed43 84bd
00000190: 78f6 1dbe 770e 833e 72b2 4a3e 8152 d6be
000001a0: 2091 9abc 06b0 d0ba 9fb9 4c3e 6de8 4dbe
000001b0: 43a7 5cbd a142 3cbe 7fa2 51be 1141 513e
000001c0: 7dc6 2dbd c08b 03bf f81a 20bf 9592 673e
000001d0: 9526 94bd 4b85 85bc 603f a6be 2a6c 56bd
000001e0: 8c8e 863d f29f 93be 01be 1b3e 7f07 8e3e
000001f0: a93a eb3c e951 a93d f501 a2bd eee3 2ebe
00000200: 37ba 25bd 69ca 0fbd f150 acbd beee 9c3d
00000210: 9825 153e 8763 903d bca5 a6bd 9336 debc
00000220: a9de b13d a20a 1ebc 4086 05bd 7ee7 f03c
00000230: fe1b a2bc a68d 883d b3c0 1ebe e976 2c3d
00000240: ce29 81bc ff7b 12bc cace 18bd 00e2 b4bd
00000250: 4b8e 23be 2d7e f03d b39c 88bd 859c 3ebd
00000260: fda3 1dbe d32d 793e c8a5 163e 61d3 b6bd
00000270: 67c8 7abd 5493 013e b4af 7abe 8c73 3cbb
00000280: 7127 08be 8fb1 92bc d52c 11bd ebb3 153e
00000290: 1509 883d 79ae 813c 686a 603d a24f ccbc
000002a0: 062d b43e 281a a5bd 061b 1cbc f0ff cebd
000002b0: 7254 19bd 93b6 033e b460 27bd 7905 c4be
000002c0: df4f 0fbe 893b 903d cd6b 4f3c f55d 443d
000002d0: de53 50be 600d 783c 9062 f1bd 7cb4 f8bd
000002e0: ba07 deb9 4ea3 9abd 34e1 cb3e 3646 97bd
000002f0: 156e 9cbd 623d 02bb 858d e23d a909 18be
00000300: b0a3 8d3d 767f 0cbe da64 dbbd 27d2 87be
00000310: 8e08 9abd b703 b9bc cf86 44be 64db 6dbc
00000320: 1403 45bd 488b 51bd 975f 96bd 80b5 123e
00000330: 528a 45bd e175 e63d 9562 b0bd b649 cdbd
00000340: ae3c 27be e372 3cbd c2ea 71be 99ca 0bbe
00000350: 193d af3d 125d f43d 03de c7bd 957d 573d
00000360: 5583 8a3e f0e2 5f3d 987d af3e aa76 1e3d
00000370: 50e3 913d 44ba 71bd 80e2 413d c59d f5bd
00000380: 51b8 bfbd ee68 aabd ae15 ef3b 6415 0b3e
00000390: 9b61 52be b5c6 f93d 5778 583e 3dd2 82bd
000003a0: d578 babc 33a1 6a3e e967 f13d a349 dc3c
000003b0: 16ba 70be 668d e33d aa66 833d db8b 36bd
000003c0: cad1 313d 3553 3d3b 56fd e4b9 6bd0 3cbd
000003d0: a4e8 b83d b4d5 043c 75b0 a2bd 2d82 a1bc
000003e0: fcb2 80be 384e 02be f3ba 02be 83da 82bc
000003f0: 5e9d dcbc a01e ec3d 2a89 86be 1443 973d

hidden_1.bias f4 [128]
0.065370865 -0.019580536 0.13418077 -0.024521383 0.09192774 0.46907526 0.019042498 -0.16394691
0.060353264 0.4647061 0.1646849 -0.10408813 -0.07288389 -0.14607947 0.07341457 0.060599416
0.02896841 -0.096833445 0.43979213 -0.08735848 -0.048811983 -0.036887977 0.16461278 -0.10909899
-0.087961785 0.03924639 -0.0015146636 -0.054384936 0.18991616 0.40475857 -0.18350172 0.19095947
-0.15437551 -0.0337039 0.46656394 -0.023269244 -0.13932122 -0.06244151 -0.117635526 0.028368741
0.010804484 -0.04631781 0.16825114 0.042543165 0.0026724916 0.1666479 -0.023266708 -0.15874863
-0.0148036545 0.056679722 0.28319168 -0.060170796 0.3141554 0.10345525 -0.010575708 0.03419444
0.05416271 -0.03939082 0.026054556 0.06593968 0.055807818 0.47721544 0.011048205 0.06876329
-0.04507252 0.39112517 0.011753485 0.00084551756 -0.06372538 -0.13224256 -0.13751094 0.4048351
-0.20413695 0.17008395 0.006102617 -0.07330096 0.11296662 0.012996998 -0.11169054 -0.04882079
-0.11949386 0.23984699 -0.17967094 0.425628 0.06128553 0.33352855 0.38617823 -0.09403319
-0.21730311 -0.010544732 -0.03443206 0.19005252 0.33415547 0.029179672 -0.022961466 -0.06346663
-0.025169643 0.015727686 0.029384479 -0.0818998 -0.088874586 0.24431108 0.15562348 -0.11689757
-0.031623516 -0.051949445 0.04010293 -0.078587435 -0.14405 -0.25459203 -0.07414842 0.006115152
0.014083794 0.01472085 -0.015252731 0.11050421 -0.06517998 -0.0067862184 0.2334196 -0.16667698
0.33249292 0.117333345 0.40869355 0.023936827 0.011798166 0.122355476 -0.04814673 -0.048379112
00000000: 29e1 853d 5c67 a0bc af66 093e 11e1 c8bc
00000010: 9c44 bc3d a22a f03e 03ff 9b3c b3e1 27be
00000020: fc34 773d f5ed ed3e 29a3 283e 282c d5bd
00000030: 2644 95bd db95 15be 615a 963d 1837 783d
00000040: 294f ed3c 9d50 c6bd 6f2c e13e 01e9 b2bd
00000050: 13ef 47bd d917 17bd 4190 283e 4b6f dfbd
00000060: 4f25 b4bd d3c0 203d ad87 c6ba bdc2 5ebd
00000070: 6279 423e 843c cf3e e0e7 3bbe e18a 433e
00000080: 9d14 1ebe 1a0d 0abd 78e1 ee3e 249f bebc
00000090: 39aa 0ebe abc2 7fbd e5ea f0bd 9065 e83c
000000a0: 4a05 313c beb7 3dbd 074a 2c3e be41 2e3d
000000b0: f824 2f3b bfa5 2a3e d399 bebc 008f 22be
000000c0: 078b 72bc ff28 683d 80fe 903e a775 76bd
000000d0: fad8 a03e 59e0 d33d bc45 2dbc 780f 0c3d
000000e0: b8d9 5d3d 4558 21bd 5d70 d53c 620b 873d
000000f0: bd96 643d 9555 f43e 8803 353c c5d3 8c3d
00000100: f69d 38bd 8f41 c83e b091 403c b9a5 5d3a
00000110: 7482 82bd 986a 07be abcf 0cbe 8c46 cf3e
00000120: 4709 51be 7d2a 2e3e 76f8 c73b d01e 96bd
00000130: 0b5b e73d 5cf1 543c 03be e4bd 4ff8 47bd
00000140: 32b9 f4bd 739a 753e a9fb 37be eaeb d93e
00000150: 8906 7b3d 41c4 aa3e 27b9 c53e 7994 c0bd
00000160: b584 5ebe d0c3 2cbc a208 0dbd 219d 423e
00000170: 6d16 ab3e 350a ef3c af19 bcbc cbfa 81bd
00000180: 9130 cebc 59d7 803c b8b7 f03c 15bb a7bd
00000190: e103 b6bd af2c 7a3e c35b 1f3e fe67 efbd
000001a0: a987 01bd f1c8 54bd f842 243d 73f2 a0bd
000001b0: d881 13be e359 82be 20db 97bd 9d61 c83b
000001c0: b7bf 663c b82f 713c 97e6 79bc 0850 e23d
000001d0: 157d 85bd ed5e debb 8c05 6f3e 5fad 2abe
000001e0: 833c aa3e 774c f03d 4840 d13e 2a17 c43c
000001f0: 184d 413c 8295 fa3d 8135 45bd 2d29 46bd

output_layer.weight f4 [4, 128]
0.15399997 -0.32144216 0.049459267 0.039525952 0.16716708 0.15305068 0.25220138 -0.09211334
0.24422951 0.14937699 0.13967907 -0.010287195 0.48448685 -0.037419155 0.18457553 0.05226497
0.11776717 -0.10217534 0.24208482 0.17143036 0.05450137 -0.0862024 0.21924661 0.09121734
-0.20500597 0.09170403 -0.004592189 -0.21901822 0.23292959 0.18365566 -0.19113445 -0.021160424
0.3161781 -0.095608905 0.16881242 -0.0071304175 -0.011330958 -0.010214194 -0.1436519 0.15089895
-0.18806702 -0.13894722 -0.17945124 -0.42287162 -0.09733443 0.16323677 0.04461059 -0.055406813
-0.530745 0.08182508 0.1444707 0.24989524 0.09786986 0.12910628 0.6614265 0.043855816
0.02635916 0.46165213 -0.45172966 0.090610586 0.18506643 0.16331173 -0.16798021 0.1346549
-0.021734383 0.109979086 0.24700429 0.0031737133 -0.30229777 -0.19858265 -0.07659619 0.13958731
-0.14740539 0.04613025 0.22865473 0.053253718 -0.35103607 0.064154565 -0.40155008 0.1628516
-0.1007396 0.13860413 -0.19106093 0.15300706 -0.0034017263 0.12236806 0.095122755 -0.13714592
-0.22573659 0.024635436 0.31363726 0.11251813 0.10792199 -0.030512642 -0.086654 0.09595031
0.21006206 -0.058551252 -0.33764598 0.42215967 -0.10994082 0.1882239 0.060782645 -0.11505891
0.13642277 -0.19245203 -0.045733668 0.18085855 -0.04054415 -0.08510291 -0.064946756 0.040522423
0.3157346 0.31375346 -0.33524793 0.32437205 0.46697912 0.08493407 -0.017754706 -0.15333927
0.11523485 0.078085326 0.17906617 0.02581896 -0.35622227 0.07541588 0.11015762 -0.044700667
0.2240995 -0.24479279 0.11390987 0.10665573 -0.42920613 0.13205436 0.10848096 -0.093435906
0.1275012 0.16313238 0.14329258 0.057466082 0.57109773 0.04373607 0.18439221 0.12780853
0.28444517 0.18588823 0.20910932 0.18182285 -0.07015273 -0.083436236 0.14697231 -0.080579616
-0.19108981 0.15556772 0.05064132 0.28983358 0.2502842 0.1254819 -0.18080013 0.019817023
0.37944603 -0.002475981 0.15919383 -0.12446986 -0.010694756 -0.2246623 -0.0911659 0.16947486
-0.11480253 -0.18776262 0.06900408 0.12835698 0.07721671 0.14602824 -0.054311033 -0.12567346
-0.091512755 0.09431581 0.08775565 0.19655445 0.10924428 0.21695042 0.41767395 -0.012170447
0.035200063 0.32405332 0.19955531 0.095929064 -0.52375823 0.16982199 -0.09259332 0.48122114
0.0891795 0.13539706 0.33782732 0.062371463 -0.16784169 -0.34491307 -0.1628674 0.124739684
-0.15589802 0.08761511 0.23350833 0.0968249 -0.24708338 0.049212556 -0.17275342 0.06159941
-0.10132117 0.17171627 -0.04476102 0.13203292 0.08632746 0.12626347 0.12017226 -0.07383988
-0.0902735 0.4071876 0.06839825 0.13302971 0.061125904 -0.070953 -0.20568189 0.09018074
0.061650112 -0.051751573 0.23434994 0.3046475 0.04630517 0.15898126 0.11959393 0.16045485
0.20562698 -0.07448713 0.015830053 0.08067223 -0.018224165 -0.13566981 0.16236253 0.16262682
0.24053442 0.29866767 -0.07839706 0.27365464 0.27472082 0.11632216 0.030072337 -0.18016341
0.089784406 0.007755936 0.23045644 0.13064419 0.41578624 0.13605857 0.13574399 -0.07009626
00000000: 2bb2 1d3e 1194 a4be cd95 4a3d f7e5 213d
00000010: d92d 2b3e 51b9 1c3e 8a20 813e eba5 bcbd
00000020: 4d17 7a3e 48f6 183e 0808 0f3e a08b 28bc
00000030: a90e f83e d444 19bd 5e01 3d3e cb13 563d
00000040: ea2f f13d 4e41 d1bd 15e5 773e 718b 2f3e
00000050: d43c 5f3d e28a b0bd 2f82 603e 28d0 ba3d
00000060: 16ed 51be 53cf bb3d 137a 96bb 5046 60be
00000070: 1885 6e3e 3b10 3c3e c0b8 43be a058 adbc
00000080: 19e2 a13e 9ace c3bd 2add 2c3e 47a6 e9bb
00000090: 7ca5 39bc 6f59 27bc 7c19 13be 4185 1a3e
000000a0: a494 40be 2e48 0ebe 11c2 37be a182 d8be
000000b0: 4657 c7bd 8a27 273e 98b9 363d 41f2 62bd
000000c0: e8de 07bf e893 a73d 21f0 133e 8ae4 7f3e
000000d0: fe6f c83d 7034 043e 3f53 293f 28a2 333d
000000e0: 2aef d73c ab5d ec3e 1c49 e7be 0b92 b93d
000000f0: 0e82 3d3e 313b 273e 0103 2cbe f9e2 093e
00000100: 4e0c b2bc b73c e13d b1ee 7c3e 13fe 4f3b
00000110: c6c6 9abe 4059 4bbe 77de 9cbd faef 0e3e
00000120: 70f1 16be 13f3 3c3d 7724 6a3e 9220 5a3d
00000130: 00bb b3be 7863 833d f997 cdbe 92c2 263e
00000140: 9050 cebd 3eee 0d3e 7aa5 43be e2ad 1c3e
00000150: 7fef 5ebb 1b9c fa3d b8cf c23d fb6f 0cbe
00000160: 7e27 67be 41d0 c93c 1095 a03e e86f e63d
00000170: 3406 dd3d a6f5 f9bc a777 b1bd 9981 c43d
00000180: 821a 573e 70d3 6fbd efdf acbe 5025 d83e
00000190: a728 e1bd c4bd 403e 39f7 783d 01a4 ebbd
000001a0: 69b2 0b3e 2512 45be 3a53 3bbd fc32 393e
000001b0: 9f11 26bd 6f4a aebd ce02 85bd d7fa 253d
000001c0: f7a7 a13e 4ba4 a03e 9ea5 abbe 1814 a63e
000001d0: e317 ef3e eaf1 ad3d 5172 91bc f804 1dbe
000001e0: 4000 ec3d 33eb 9f3d 1f5d 373e 4982 d33c
000001f0: c462 b6be a473 9a3d 519a e13d 0c18 37bd
00000200: 577a 653e f6aa 7abe 9449 e93d 526e da3d
00000210: e8c0 dbbe 4239 073e 442b de3d 535b bfbd
00000220: ad8f 023e 2d0c 273e 4abb 123e 8e61 6b3d
00000230: 7633 123f 9824 333d 50d1 3c3e 3de0 023e
00000240: cca2 913e 7c59 3e3e c120 563e c52f 3a3e
00000250: 3cac 8fbd 9ee0 aabd e97f 163e ed06 a5bd
00000260: 0cad 43be 254d 1f3e 466d 4f3d 1165 943e
00000270: 4025 803e 547e 003e ab23 39be 4f57 a23c
00000280: c046 c23e 1144 22bb b503 233e 0eea febd
00000290: 0f39 2fbc e00d 66be 30b5 babd d18a 2d3e
000002a0: 971d ebbd d844 40be 0352 8d3d 0370 033e
000002b0: cb23 9e3d 6d88 153e 3f75 5ebd 8bb0 00be
000002c0: 0a6b bbbd a628 c13d 3cb9 b33d 9245 493e
000002d0: 77bb df3d 4028 5e3e 5cd9 d53e 8e66 47bc
000002e0: f12d 103d 51ea a53e 3a58 4c3e 7576 c43d
000002f0: 0515 06bf d1e5 2d3e 91a1 bdbd 9e62 f63e
00000300: bea3 b63d 87a5 0a3e b4f7 ac3e 3879 7f3d
00000310: b1de 2bbe 7298 b0be b6c6 26be 8577 ff3d
00000320: bba3 1fbe 8d6f b33d cf1c 6f3e 224c c63d
00000330: 6d03 7dbe 1b93 493d 46e6 30be aa4f 7c3d
00000340: 7981 cfbd 64d6 2f3e 5557 37bd a333 073e
00000350: 74cc b03d 364b 013e e01c f63d 5d39 97bd
00000360: 50e1 b8bd e57a d03e 6214 8c3d f138 083e
00000370: 285f 7a3d ce4f 91bd 469e 52be aeb0 b83d
00000380: d484 7c3d 75f9 53bd 6ef9 6f3e c2fa 9b3e
00000390: 7daa 3d3d fccb 223e aaed f43d 474e 243e
000003a0: e18f 523e b58c 98bd 07ae 813c 7b37 a53d
000003b0: d84a 95bc 07ed 0abe 5d42 263e a587 263e
000003c0: a84e 763e f8ea 983e a38e a0bd 761c 8c3e
000003d0: 35a8 8c3e 503a ee3d 435a f63c c27c 38be
000003e0: e3e0 b73d 8225 fe3b c6fc 6b3e 97c7 053e
000003f0: efe1 d43e f052 0b3e 7900 0b3e a18e 8fbd

output_layer.bias f4 [4]
0.33946663 0.23573723 0.19760193 0.24797717
00000000: 92ce ad3e 1a65 713e 2958 4a3e baed 7d3e
